…
+-----------------------------------------------------------------------------+
|  No running processes found                                                 |
+-----------------------------------------------------------------------------+
Files already downloaded and verified
Files already downloaded and verified
Dataset stats:

Number of training images: 50000, testing: 10000
Image size: (3, 32, 32)

Loading model...
----------------------------------------------------------------
        Layer (type)               Output Shape         Param #
================================================================
            Conv2d-1           [-1, 32, 32, 32]             416
              ReLU-2           [-1, 32, 32, 32]               0
            Conv2d-3           [-1, 32, 32, 32]           4,128
              ReLU-4           [-1, 32, 32, 32]               0
         MaxPool2d-5           [-1, 32, 16, 16]               0
            Conv2d-6           [-1, 64, 16, 16]           8,256
              ReLU-7           [-1, 64, 16, 16]               0
            Conv2d-8           [-1, 64, 16, 16]          16,448
              ReLU-9           [-1, 64, 16, 16]               0
        MaxPool2d-10             [-1, 64, 8, 8]               0
           Conv2d-11            [-1, 128, 8, 8]          32,896
             ReLU-12            [-1, 128, 8, 8]               0
           Conv2d-13            [-1, 128, 8, 8]          65,664
             ReLU-14            [-1, 128, 8, 8]               0
        MaxPool2d-15            [-1, 128, 4, 4]               0
           Conv2d-16            [-1, 256, 4, 4]         131,328
             ReLU-17            [-1, 256, 4, 4]               0
           Conv2d-18            [-1, 256, 4, 4]         262,400
             ReLU-19            [-1, 256, 4, 4]               0
        MaxPool2d-20            [-1, 256, 2, 2]               0
        AvgPool2d-21            [-1, 256, 1, 1]               0
           Linear-22                 [-1, 2048]         526,336
             ReLU-23                 [-1, 2048]               0
          Dropout-24                 [-1, 2048]               0
           Linear-25                  [-1, 100]         204,900
================================================================
Total params: 1,252,772
Trainable params: 1,252,772
Non-trainable params: 0
----------------------------------------------------------------
Input size (MB): 0.01
Forward/backward pass size (MB): 2.04
Params size (MB): 4.78
Estimated Total Size (MB): 6.83
----------------------------------------------------------------
Training Starting...
…
